PST(
  (W_1): Linear(in_features=256, out_features=128, bias=True)
  (W_2): Linear(in_features=256, out_features=128, bias=True)
  (learning_fitting_encoder): LearningProcessModule(
    (W_1): Linear(in_features=384, out_features=128, bias=True)
    (W_2): Linear(in_features=512, out_features=128, bias=True)
    (W_3): Linear(in_features=384, out_features=128, bias=True)
    (W_4): Linear(in_features=384, out_features=128, bias=True)
    (W_5): Linear(in_features=384, out_features=128, bias=True)
    (W_6): Linear(in_features=384, out_features=128, bias=True)
    (W_7): Linear(in_features=256, out_features=128, bias=True)
    (W_8): Linear(in_features=384, out_features=128, bias=True)
    (W_9): Linear(in_features=256, out_features=128, bias=True)
    (W_10): Linear(in_features=256, out_features=128, bias=True)
    (W_11): Linear(in_features=256, out_features=128, bias=True)
    (W_12): Linear(in_features=128, out_features=1, bias=True)
    (W_13): Linear(in_features=128, out_features=1, bias=True)
    (position_encoder): Embedding(10, 128)
    (dropout): Dropout(p=0.2, inplace=False)
    (sig): Sigmoid()
    (relu): ReLU()
    (tanh): Tanh()
  )
  (exercise_encoder): Embedding(1671, 128)
  (tanh): Tanh()
)
